Pytorch/TimeSeries/lightning_logs/version_6/checkpoints/epoch=26-step=1350.ckpt (torch, 239803 bytes, 33 tensors)

embeddings.embeddings.series.weight f4 [100, 21]
000000 73 13 1f 3e f6 ee 35 bf 00 d3 78 bf c6 4f 02 40
       0.15534763 -0.7106775 -0.9719696 2.036119
000010 65 9a ca 3e 0b b3 93 bf 39 73 d6 3f dd 39 2d 3f
       0.3957092 -1.1539015 1.6753913 0.6766642
000020 dd fb 35 3f 45 2c 96 bf dd 03 ca 3f 66 c2 62 bf
       0.7108744 -1.173226 1.5782429 -0.8857788
000030 0d e9 a3 3f b9 32 d3 3e 5c 50 78 3f 76 0c 15 bf
       1.2805496 0.41249636 0.9699762 -0.5822214
000040 41 17 b0 3f d9 65 2f 3e ce e5 4b be ec f2 5a bf
       1.3757097 0.17128696 -0.19911882 -0.8552692
000050 70 d5 08 bf b0 54 75 3e f7 ef 9b 3e c4 19 8a bd
       -0.5345068 0.23958087 0.30456516 -0.06743196
000060 bb 31 1f bf 1f cc 80 3e 12 c9 62 bf dc f8 ce 3f
       -0.6218526 0.25155732 -0.8858806 1.6169696
000070 45 67 3a be 83 b3 f4 3e 90 7b f9 3e df 79 8f bf
       -0.18203457 0.47793207 0.48727083 -1.1209067
000080 78 2f a1 bf ba 62 99 3f 94 5b 05 3f 83 2c 07 be
       -1.2592611 1.1983254 0.5209286 -0.13200574
000090 71 00 a4 bd 30 06 38 bf 0f 4b e7 3e 21 c6 48 3f
       -0.08007897 -0.7188444 0.45174453 0.7842732
0000a0 f2 7e 7a 3e a9 5f f7 be ac 1d da 3d d1 31 86 3f
       0.24462488 -0.4831517 0.10650191 1.0483953
0000b0 16 f8 16 be 00 04 dc 3f be 2c 3f bf 47 08 91 3d
       -0.14743075 1.7188721 -0.74677646 0.07081657
0000c0 1f 4e d4 3f e2 f7 d3 3e cf d3 98 3f 70 d1 30 be
       1.6586341 0.41400057 1.1939639 -0.17267394
0000d0 ca da 3a 3f 15 4c 16 3d aa ca 94 be 68 bb 04 bd
       0.72990096 0.03669365 -0.2906087 -0.032405287
0000e0 e0 85 9d bf f0 4b 41 3f 55 e0 3a bf c5 a8 4f bf
       -1.230648 0.75506496 -0.72998554 -0.81116897
0000f0 1a 08 d2 3f b3 35 9b 3f 11 43 0a 3f b5 22 8e be
       1.6408722 1.2125763 0.54008585 -0.27760854
000100 81 27 1b 3f 6e 2d 12 bf 83 b2 9c be 2b fc ea be
       0.60607153 -0.5710057 -0.30604944 -0.45895514
000110 0d 0f dd bd d8 2c 9d bf a6 1b da be f0 de c2 be
       -0.10793886 -1.227931 -0.4259922 -0.38060713
000120 d6 4d e8 3e a3 5a d5 be f3 09 9f bf 87 d8 24 3f
       0.45371884 -0.41670713 -1.2424911 0.64392895
000130 ea 44 80 3e 2e 05 bf be 56 af 2e 3e 1b c5 4b 3f
       0.25052577 -0.3730864 0.17059073 0.79597634
000140 05 ed 2d bf 28 d1 b7 bf a5 b8 26 bf 99 94 84 bf
       -0.6793979 -1.4360704 -0.65125495 -1.0357848
000150 90 be 63 3d 82 b4 34 bf 6d 84 3c be e9 f9 56 be
       0.055601656 -0.70587933 -0.18409891 -0.2099377
000160 3e 39 40 bf 25 0a 25 3f 2d aa b7 3e f9 50 85 3f
       -0.75087345 0.64468604 0.3587202 1.0415336
000170 7e 9e a0 3f 71 3f 5b 3f 2b 0e 3e 3f 2b 33 d2 be
       1.2548368 0.8564368 0.7424037 -0.41054663
000180 02 a1 d5 3f 2d 7f 89 bf 18 4e 80 bf 80 e0 4f 3f
       1.6689761 -1.0741936 -1.0023832 0.81201935
000190 26 f3 77 3e b4 62 8d bf ac 2e 0b bf 5a 47 08 3e
       0.24213848 -1.1045747 -0.5436809 0.13308468
0001a0 f3 46 d5 3e f4 35 80 bd 40 96 af 3f 28 08 7e bf
       0.41655692 -0.06260291 1.3717728 -0.99231195
0001b0 aa 77 09 3f 58 77 9d 3d 78 33 4c 3d 5b 20 38 bf
       0.5369822 0.07688779 0.049853772 -0.7192437
0001c0 d9 93 d4 bd db fd 46 3f a2 47 4b bd f4 5e e8 3e
       -0.10379762 0.777311 -0.04962886 0.45384943
0001d0 1f 63 84 3f 84 3b 20 bf 3d eb 3f 3e 98 57 31 bd
       1.0342749 -0.62590814 0.1874208 -0.043296427
0001e0 b5 64 43 3f 26 70 0a bf 4a a5 97 bf f0 2e 2f 3d
       0.7632554 -0.54077375 -1.1847317 0.042769372
0001f0 42 b5 1a be 56 4d 09 be 84 5e b1 3f 01 7e 4b bf
       -0.15108207 -0.13408408 1.3856969 -0.7948914
000200 53 fc a6 3e 21 1e 38 3f 23 59 86 bf 14 ad d3 3d
       0.32614383 0.71920973 -1.0495952 0.103357464
000210 ba bf b2 3e d8 17 74 3f 04 5f 15 3d 05 8e 7d bf
       0.349119 0.9534888 0.036467567 -0.9904483
000220 28 17 d5 3f e1 ab 5e 3f 79 a5 14 c0 1a 15 a3 3f
       1.6647692 0.86981016 -2.3225996 1.2740815
000230 f7 49 b1 3f 2c f8 3e 3f eb 87 12 bf 3f d7 bb 3f
       1.3850697 0.7459743 -0.57238644 1.4675063
000240 e7 61 57 3f 75 75 a9 bf 14 86 88 bd b5 95 cc bc
       0.8413376 -1.323897 -0.066661984 -0.02497373
000250 5d a8 cf 3e 5b 83 6b be 0d d9 ef be ca e7 77 bf
       0.40558138 -0.22999327 -0.46845284 -0.9683806
000260 56 8a dc be 2a 0e 46 3e 4b 38 4c bf a5 6e c6 bf
       -0.43074292 0.1934134 -0.79773396 -1.5502516
000270 a7 bb 92 3e af 9f 09 bf 6c df 19 bf d8 e1 26 3f
       0.28658792 -0.5375928 -0.6010654 0.6518836
000280 aa 54 a2 3e ab a5 bd 3c df 2f 50 3e 79 22 ba 3d
       0.3170522 0.023150286 0.20330761 0.090886064
000290 19 1e 02 c0 69 5e ab 3e 84 1f d9 bf e3 7d a3 be
       -2.033087 0.33470467 -1.6962743 -0.3193198
0002a0 f7 16 c6 be 68 61 41 3f 51 47 b6 bd b0 87 96 bf
       -0.38689396 0.75539255 -0.08900321 -1.1760159
0002b0 53 ea ba bf 24 41 d6 3e a2 42 cb bf 99 f2 21 bf
       -1.460276 0.41846573 -1.587971 -0.632608
0002c0 cc 46 8f 3f d4 e6 9f 3d 36 2d 33 3d 91 9e 94 be
       1.119348 0.07807699 0.04374429 -0.29027227
0002d0 de 2f 59 3e fa 5f 83 bc 25 b9 62 3c 5a b8 9c 3e
       0.21209666 -0.016036976 0.013838087 0.306094
0002e0 e1 50 af bd da 03 ba 3d e6 0e 3b bd b1 f1 10 bf
       -0.08560348 0.09082766 -0.045668505 -0.5661879
0002f0 01 90 80 3f bf 4a cb 3f d4 13 23 3f 3e 20 f1 be
       1.0043947 1.5882186 0.6370213 -0.4709491
000300 8b 2d a2 3f 37 25 d6 3e 93 9d c9 bf d4 65 cd be
       1.2670149 0.41825268 -1.5751213 -0.4011675
000310 5a e4 9f 3f 35 5f c7 3f d9 70 87 3f 5e 33 39 be
       1.2491562 1.557593 1.0581313 -0.18086001
000320 e3 3c 9c be e3 24 cc 3e a7 7f 88 3d 5f 8f 70 3f
       -0.30515203 0.39871892 0.06664973 0.93968767
000330 23 45 56 3d cd 99 4c 3c 12 d7 b7 3e 7b 9b fd be
       0.052312028 0.012487841 0.35906273 -0.49532685
000340 a7 75 49 bf dc 36 91 bf 9b 4f e5 be 28 3a 5a 3f
       -0.7869515 -1.1344867 -0.44787297 0.8524499
000350 b9 dc 4c bf e1 c4 93 3e 03 79 d8 be a0 ea 62 bf
       -0.80024296 0.28861144 -0.42279825 -0.8863926
000360 13 d5 50 bd ba e3 b8 bf 4c 3e 8a 3f be 7f cf 3f
       -0.050984453 -1.4444497 1.0800261 1.6210859
000370 37 a4 21 3e 30 18 29 bf 9b 49 d6 be cb 7b 48 3f
       0.15785299 -0.6605253 -0.41853032 0.78313893
000380 13 c7 1e 3e 87 29 bf 3c 04 e9 c6 bb 06 76 6c bf
       0.15505628 0.023335231 -0.006070258 -0.9236759
000390 41 7d 31 3f 82 fd b1 be 7f ca 7e bf 48 b1 d2 3f
       0.6933175 -0.34763724 -0.99527735 1.6460352
0003a0 66 b7 bc bf 27 63 77 be 30 55 05 40 26 ab 6b 3f
       -1.4743469 -0.24158917 2.0833244 0.92058027
0003b0 ca 9f b3 bf 6d 76 c6 bf a4 2f 10 40 66 c3 b3 be
       -1.4033139 -1.5504891 2.2529078 -0.35110015
0003c0 3c 77 81 be 05 37 3c bf a6 8d a8 3e d1 9c 87 bf
       -0.2528628 -0.73521453 0.3292057 -1.0594732
0003d0 2d f6 2d 3f e1 cd f8 bf 11 eb f3 3f 9c 6f fc 3d
       0.6795376 -1.9437829 1.9056112 0.12325975
0003e0 04 69 e3 3f 91 61 36 bf 2c 8b ac 3f 11 1c e7 3f
       1.7766423 -0.71242625 1.3479972 1.805544
0003f0 65 d6 43 bf ea 77 bd be 3f af 2d 3f c8 e7 39 3f
       -0.76499015 -0.3700555 0.6784553 0.72619295

rnn.weight_ih_l0 f4 [120, 22]
000000 24 40 5b bf e3 b8 ea 3e 47 17 ee bd cd 9f 0e 3e
       -0.85644746 0.45844182 -0.116255336 0.13928147
000010 b7 1c 3a bd 37 6a 17 bd 4f 5d 84 bc 8e 94 8e 3e
       -0.04543754 -0.03696653 -0.016157774 0.27847713
000020 9d 80 81 be fb ca 22 3e 70 a4 c9 b9 30 a4 b8 3e
       -0.25293437 0.15897743 -0.00038460223 0.36062765
000030 9c d0 82 be ed cd 11 3e 79 e3 00 be 36 50 bd 3e
       -0.2554978 0.1423871 -0.12586774 0.3697526
000040 b2 5d 11 3e 43 10 dd be 4d 6a f4 3d 86 f6 3b bd
       0.14195898 -0.4317647 0.11934338 -0.0458894
000050 d5 94 81 be 71 23 e0 3d c0 0c 76 bf e5 77 4f be
       -0.25308862 0.1094426 -0.96113205 -0.2026058
000060 9c a5 75 3e 07 05 a0 bc 2a b7 f4 be d3 a7 e1 3e
       0.23988956 -0.019533647 -0.47795993 0.44073352
000070 c0 22 ac 3a 74 6f 0a be 16 13 2c be b5 4d 09 3f
       0.0013132915 -0.13519078 -0.16804156 0.53634197
000080 e2 b7 1e 3e cd f0 b5 3e fb f7 99 3d 6e 99 9d 3e
       0.15499833 0.3553528 0.07518002 0.3078112
000090 81 71 1c bd 27 dd dc bd a8 d6 c9 3e 2c b7 a9 3e
       -0.038194183 -0.10784369 0.39421582 0.33147562
0000a0 68 56 e9 bd 22 60 2d 3e d6 08 10 be 9a 4b 47 3e
       -0.11393434 0.16931203 -0.1406587 0.19462433
0000b0 40 a1 ac 3d 84 e3 6d 3e ed 6d c3 3d a0 9f a4 be
       0.084291935 0.23231322 0.09542451 -0.32153034
0000c0 d4 5b 15 be 0d 7e 61 be c1 0a 59 be d4 1f f5 3e
       -0.14585811 -0.22020741 -0.21195509 0.47875845
0000d0 f8 ab 62 be a1 92 28 be c4 7b 0e 3e db ca 12 be
       -0.22135913 -0.16462184 0.139144 -0.14335196
0000e0 1e 65 a9 be 1a a5 f1 be 96 5a 84 3e 45 d3 a2 be
       -0.3308496 -0.47196275 0.25850362 -0.3180181
0000f0 38 92 93 3e 9d 7b 21 be bf d4 d1 3e 00 d4 9e 3e
       0.28822494 -0.15769811 0.40982625 0.31021118
000100 42 cb 11 3e 63 5a a5 be 72 c7 8e 3f 56 98 be bd
       0.14237693 -0.32295522 1.1154616 -0.093063995
000110 e0 83 79 be 8a ec 4b 3e a6 7c 8e bd 9f d6 f9 3d
       -0.24366713 0.19914451 -0.069573686 0.12199139
000120 0c 28 4e 3e cc bc ab 3d c3 3b 8b be 8a ba a4 be
       0.20132464 0.083856195 -0.27194032 -0.32173568
000130 5e 41 eb 3c 66 7a 64 3e 5a 35 eb 3e 79 bd c2 3c
       0.028717693 0.22312316 0.45939142 0.023771988
000140 af 10 9b 3d d3 15 fb bd 42 7a 99 3e 8b c0 e2 be
       0.075715415 -0.12260022 0.29976088 -0.44287524
000150 e5 1d 07 3e b2 b3 c1 3b 90 0a 3b 3e 14 2a ca 3d
       0.13194998 0.005911314 0.18265748 0.09871307
000160 90 9d 2e bf eb b9 ea bd 06 84 c9 bc 11 69 8b be
       -0.6820917 -0.11461242 -0.024599086 -0.27228597
000170 53 35 81 be 7b 1c b0 be c5 0a 09 bf f3 36 1a 3d
       -0.25235996 -0.3439673 -0.5353206 0.03765006
000180 5f ae e2 3e 32 09 06 3f 76 6f aa be 21 56 9a 3e
       0.4427366 0.5235778 -0.33288163 0.30143836
000190 67 47 b9 3e 44 73 9e be 8b 75 05 3d 2f 53 9d 3d
       0.36187288 -0.30947316 0.0325828 0.07681882
0001a0 1d fa 5c bf a7 5d 1d bf 80 92 e8 bd b4 c6 e9 3e
       -0.8631914 -0.6147103 -0.11356068 0.4565941
0001b0 10 d8 2c be 27 4f a7 3e 01 7b 88 bd 0b c7 2b 3f
       -0.16879296 0.32677576 -0.06664086 0.6710059
0001c0 0a ab 46 3e 18 87 55 be 40 0c cd 3e 4b 2c be 3d
       0.19401184 -0.20852315 0.40048409 0.09285792
0001d0 84 98 08 3f 6d a0 63 bd ba de 15 3f 8b 43 86 3e
       0.5335772 -0.055572916 0.5854298 0.26223406
0001e0 1d 64 80 3e ce cc 8b 3d 2c be 9f bd c2 fe 59 3e
       0.2507638 0.06826173 -0.07799944 0.21288589
0001f0 18 d8 08 3e 29 b5 86 bf 65 bb 82 be a5 f8 9d be
       0.13363683 -1.0524036 -0.25533596 -0.30853763
000200 ac d1 b9 3d 80 83 2a 3e 89 bd a3 3d d1 1c 58 bf
       0.09073195 0.16651726 0.07995135 -0.8441897
000210 aa a6 38 be d4 a3 d2 bd 4a a8 d4 bd d8 e1 26 3d
       -0.18032327 -0.10285154 -0.10383661 0.040742725
000220 10 e2 8c bd 62 57 45 be 8d 7f a2 3e 14 81 8d be
       -0.068790555 -0.19271615 0.3173794 -0.2763754
000230 91 ca 48 be e8 85 b8 be 2a 07 fc be 5d 64 90 be
       -0.19608523 -0.36039662 -0.49224216 -0.2820157
000240 b3 6d 5c 3e 17 16 0b bd ea f3 10 3e dd 08 a5 3e
       0.21526222 -0.033956613 0.14155546 0.32233325
000250 26 0e 80 be a3 76 95 be c4 0b cd 3e 2f 96 12 be
       -0.25010794 -0.29192075 0.4004804 -0.14315103
000260 8a e3 4f 3e 8f 9d 25 3e e3 ae a0 be 6c c3 99 be
       0.20301643 0.16173385 -0.31383428 -0.30031908
000270 31 23 9b 3e bb dd 34 be b1 50 ce be f2 e4 99 3d
       0.30300286 -0.17662708 -0.40295938 0.07514371
000280 a7 9d d7 3e 0a 9c 67 bf ca ab cb bc 7d 2a 8f be
       0.42112467 -0.9047247 -0.024862189 -0.27962103
000290 38 3f 4c 3e da fd 17 be 45 aa 2f be 44 17 0a 3e
       0.19945991 -0.1484293 -0.17154796 0.13485438
0002a0 57 10 22 be 0b d0 29 be 85 0e 1e 3f d3 be d6 3e
       -0.15826546 -0.16583268 0.61740905 0.41942462
0002b0 a8 77 c7 bd 7a db 57 3e 99 30 7c 3e 56 de 1c 3e
       -0.097396195 0.21079817 0.24627914 0.1531919
0002c0 03 8c 8e 3e ec d8 98 be 60 6b 14 3e 86 01 92 bd
       0.27841195 -0.29852998 0.14494085 -0.07129197
0002d0 f7 91 b1 bc 53 3c b2 3e 15 00 29 3e 87 17 17 bd
       -0.021676047 0.3481165 0.16503938 -0.03688767
0002e0 5a 14 4f be 62 d3 2d be 19 07 0a be 0a c3 df 3e
       -0.20222607 -0.16975167 -0.1347927 0.4370349
0002f0 dc 06 e3 bc 5f 9c 3c 3d 5f aa 6c be a8 95 6d 3e
       -0.027713232 0.046047565 -0.23111866 0.2320162
000300 0f 9d 51 be 60 5d 72 be 1c f8 12 3e 4e 73 92 3d
       -0.2047007 -0.23668432 0.14352459 0.07150899
000310 ac 7e d5 be 93 94 df bd 53 64 c9 3e 24 09 a5 3e
       -0.41698205 -0.1091701 0.39334354 0.32233536
000320 ab ec 40 bf 2f f5 53 bf 45 94 ae be 4c d6 3b bf
       -0.75361127 -0.82795995 -0.34097496 -0.73373866
000330 9f ed 47 be aa 88 ba bd c7 74 22 bf b4 77 04 bf
       -0.19524239 -0.09108098 -0.6345944 -0.5174515
000340 f3 77 e0 bd 00 07 d0 be 04 72 be bd 4e 12 2a be
       -0.109603785 -0.4063034 -0.092990905 -0.16608545
000350 d2 4d 3f be 98 ab f7 3e d9 55 98 3d 59 e1 17 bf
       -0.1868203 0.48373103 0.07438249 -0.5932823
000360 64 2f 1b bc e9 73 02 be a0 9a b3 be 39 68 a5 3e
       -0.009471748 -0.12739529 -0.35078907 0.32306078
000370 65 f7 b8 be a2 92 ed 3d d7 a3 67 bf 63 5e 96 3d
       -0.36126247 0.116002336 -0.90484375 0.073422216
000380 e4 03 2c be d7 0b 85 be 98 f4 1c bc 34 ad 02 be
       -0.16798359 -0.25985596 -0.0095798 -0.12761384
000390 fb a9 8a 3e f7 7b 69 bd c2 15 8d bd ea 46 44 be
       0.2708281 -0.057002988 -0.068889156 -0.19167677
0003a0 48 c5 0f bf 0f d6 23 3e e2 81 52 bf 0e 7e 68 3e
       -0.561604 0.15999626 -0.82229435 0.22704336
0003b0 df a5 96 be 6c b7 92 be e1 35 03 bd c3 29 e7 be
       -0.29423425 -0.28655565 -0.032033805 -0.4514905
0003c0 79 01 03 3e f8 eb c0 bd 24 50 0e be 12 8e 61 3d
       0.1279353 -0.094200075 -0.13897759 0.05506713
0003d0 44 2f bf bd 28 29 8d 3e 32 b3 1f 3d c5 69 de bc
       -0.09335187 0.27570462 0.038989253 -0.027150044
0003e0 d0 c9 73 be e3 d4 b9 3e f6 a8 4f 3e 86 9e 99 be
       -0.23807454 0.36295232 0.20279297 -0.30003756
0003f0 41 dc f0 3d ce d1 00 be 1f 0f 76 3e 8a df 82 3e
       0.1176076 -0.12580034 0.24029206 0.25561172

rnn.weight_hh_l0 f4 [120, 30]
000000 9a 56 a0 bd 2a b1 ca be 07 44 c2 be f1 c0 e1 bd
       -0.07829018 -0.3958829 -0.37942526 -0.11023129
000010 70 88 3b 3f 6c 33 07 be b8 12 96 be bd 16 02 3e
       0.7325506 -0.1320321 -0.29311156 0.12703986
000020 9d a9 4b 3e 63 bd 27 be 1a cd d9 3d 52 e2 10 3e
       0.19888921 -0.16380839 0.10634823 0.14148834
000030 50 b8 21 3d 36 57 13 bf b1 1b ab 3e 81 6b b8 3e
       0.039482415 -0.5755495 0.33419564 0.3601952
000040 0e bb f6 3e 6f 53 ad 3e 2d 40 e1 be d2 07 e6 3e
       0.48189586 0.33852717 -0.43994275 0.4492784
000050 c8 b2 ea bd a0 3f 14 3e ac 41 2c be 53 9f 99 be
       -0.11459881 0.14477396 -0.16821927 -0.30004367
000060 4f 3a 17 be 8d ae 24 bf d0 ad 58 3e 42 64 19 3f
       -0.14768337 -0.64328843 0.21160054 0.59918606
000070 42 6e ac bd cc a5 75 3f e7 f4 52 3e f0 4d d3 3e
       -0.084194675 0.9595611 0.20601235 0.412704
000080 db b3 34 bf 24 34 88 bd ee 26 17 bf c5 fd 65 3d
       -0.7058694 -0.0665057 -0.59043777 0.056150217
000090 c5 e8 05 bd 09 84 6f 3e ce b4 04 be 8c 8b b9 3e
       -0.03269269 0.23390211 -0.12959597 0.36239278
0000a0 cb 76 bd 3e 6d 08 a7 be fe cc 95 3e 76 99 6e 3e
       0.37004694 -0.32623616 0.2925796 0.23300728
0000b0 19 c7 b2 be 9d 4f 7e be 11 0a 2f 3f 29 ca ee 3d
       -0.34917524 -0.24835058 0.68374735 0.11659653
0000c0 fb f0 ea be a6 a3 87 3e e2 b7 15 be ad 10 41 3e
       -0.45886979 0.2649204 -0.14620927 0.18854018
0000d0 41 5f dd bd 91 c7 0b bf 22 88 3e 3e 42 71 eb be
       -0.10809184 -0.5460139 0.18606618 -0.45984846
0000e0 b6 6a ee be be 1c 73 3f 17 a4 75 3e 9d 5f 4f 3f
       -0.4656579 0.9496573 0.23988377 0.8100527
0000f0 cb 49 3e bf c4 68 63 3e d1 e3 02 bd 86 3d d2 3b
       -0.7433135 0.22207934 -0.031955544 0.0064160256
000100 c0 18 12 3f 16 34 cf be 13 0d d2 be a9 41 e2 be
       0.57069016 -0.40469426 -0.410256 -0.4419072
000110 e7 f8 53 3e dc 0a 4b 3d 82 4e be be f2 b0 96 3d
       0.20700417 0.049570903 -0.37169272 0.073579684
000120 a9 21 c0 bd ae a4 fa be 8a 6e 0b 3f 8f 7f 23 bf
       -0.0938142 -0.48953766 0.54465544 -0.63866514
000130 8e da 58 3e 1b 0a 85 3d b6 6f 84 be b2 81 51 be
       0.21177122 0.06496068 -0.2586648 -0.20459631
000140 ad 80 b2 be ba 98 fd 3e 9d 3a 8c be 34 6f 9a 3e
       -0.34863797 0.49530584 -0.27388468 0.30162966
000150 a8 3d 32 3e 21 f1 b0 bd b4 be 5a be 0a 26 df 3d
       0.17406332 -0.08639742 -0.2136181 0.10895927
000160 c9 5a 2c be aa b7 22 3e ab ad 02 bf 8b 9e 28 bf
       -0.16831507 0.15890375 -0.51046246 -0.6586692
000170 56 be b0 3c 59 1c 54 3f 98 4d e7 3e f4 d7 8a bf
       0.021575134 0.82855755 0.45176387 -1.0847154
000180 67 ba 14 3f 76 51 3c bf 43 d0 3d 3f 9a 03 ac bf
       0.5809693 -0.735618 0.7414591 -1.3438599
000190 7d 38 61 bf a5 a9 6d 3f 89 06 c2 3d 9a 2c b4 3e
       -0.8797682 0.9283698 0.09473903 0.35190278
0001a0 7a 9c bb 3e 2d 74 2b bf b5 db 2e bd ca bc 8f bf
       0.3664282 -0.66974145 -0.042689998 -1.1229489
0001b0 a1 03 20 bd b9 ef 1d bf 78 23 61 bf f6 e2 58 3f
       -0.03906596 -0.6169391 -0.87944746 0.84721315
0001c0 1f a4 bd 3e 2f e3 2f 3e 8a 05 19 bf 8c 60 4d be
       0.37039277 0.17176507 -0.59774077 -0.20056361
0001d0 c4 8a 75 be 12 0c 6d be a1 c2 0f bf cd 2c 71 3e
       -0.23978716 -0.23149136 -0.56156355 0.23552246
0001e0 46 17 23 3f 4a e2 50 3f 04 ef c1 be 6b fc c7 bf
       0.6370739 0.8159529 -0.37877667 -1.5623907
0001f0 bc 37 46 3e 4f 5b da 3e c1 50 bb bd ad 66 8e 3f
       0.19357198 0.42647788 -0.09146262 1.1125084
000200 9f f6 b2 bf dd 2d cc 3e aa 42 af 3e e5 0f fb be
       -1.3981513 0.3987874 0.34230548 -0.49035564
000210 74 be f2 be da 77 1a 3f f4 67 4b bf 19 34 d4 bd
       -0.4741093 0.6033913 -0.79455495 -0.10361499
000220 17 20 ca bf dc 2f 85 be 9b a7 f3 be b0 75 35 3e
       -1.5791043 -0.26013076 -0.4758881 0.17720675
000230 59 49 90 3f a0 e5 40 3d 19 8f a8 3e 85 5c 47 3f
       1.1272384 0.047093987 0.32921675 0.7787555
000240 1a 83 02 3e b7 ef a3 3e da 83 27 3f 84 0d 30 be
       0.12745324 0.32018825 0.65435565 -0.17192656
000250 5b 67 aa 3e 93 85 00 bf e7 82 f5 be 55 51 ea bc
       0.3328198 -0.5020382 -0.47951433 -0.028603235
000260 47 93 6b bd 88 74 64 be 88 fd a6 3e ef 22 dc 3c
       -0.0575135 -0.22310078 0.32615304 0.026872126
000270 3b c2 f0 3d 23 f8 aa 3e fd b1 dc 3e 04 7a 61 3f
       0.117557965 0.33392438 0.43104544 0.88076806
000280 a4 1e cf be 9c 57 d2 3d 69 10 15 bf 4d d1 f0 be
       -0.40453064 0.102706164 -0.58228165 -0.47034684
000290 2e 6b d2 3d 85 fc 9a 3e 2a ad 6e 3e 19 6a 9f 3d
       0.10274349 0.30270782 0.23308244 0.077839084
0002a0 99 fa bc 3d dc 29 e3 bd b6 33 15 be 5f 54 bd be
       0.09227485 -0.110919684 -0.14570507 -0.36978433
0002b0 c4 e5 b6 3e 15 34 42 3e 9a 53 04 3f c5 1e 0e bf
       0.35722172 0.1896518 0.51690066 -0.555157
0002c0 b4 e1 9f bd fb e5 db 3e a0 a4 f8 be 93 97 93 3f
       -0.07806721 0.429489 -0.485631 1.1530632
0002d0 43 8b 19 be 86 fe 9b be 35 81 fd bd 7e 8c 58 be
       -0.1499453 -0.30467623 -0.1237816 -0.21147344
0002e0 d6 33 01 3f e7 77 a0 be 5c f7 f7 be 47 95 79 be
       0.5046972 -0.31341478 -0.48430908 -0.24373351
0002f0 e2 d6 5c 3e 23 58 11 be 2c 29 e0 bd c8 2b f9 bc
       0.21566346 -0.14193778 -0.10945353 -0.030416384
000300 a2 48 2a be 6f 32 5a bf 93 d2 8e 3e 5c 82 f6 3d
       -0.1662927 -0.85233206 0.2789503 0.12036583
000310 93 4f 36 bd 4c 45 d7 bd c8 a4 98 bf 92 0d 38 3d
       -0.04450948 -0.10511264 -1.1925287 0.044934817
000320 5e c8 d4 be 13 10 47 3e 42 da b2 bb 9e 3c 65 bf
       -0.41559118 0.19439726 -0.0054581473 -0.8954562
000330 99 2f 0e bf 1d e3 22 bf 61 fa 9a be b5 bf 38 3f
       -0.5554138 -0.636278 -0.3026915 0.7216752
000340 0c 2e 38 be 29 df dd 3e 4c d8 05 bf 92 d0 e3 be
       -0.17986315 0.4333432 -0.5228317 -0.44495064
000350 82 86 fd be 36 82 f0 be ec 86 6a bd f7 bf ba bd
       -0.49516684 -0.46974343 -0.057257578 -0.09118646
000360 70 72 03 3f a8 2b d2 3d b0 44 06 3f a9 e9 7f 3e
       0.5134649 0.10262233 0.5244856 0.24991478
000370 35 6a c9 be d6 21 ba 3e 06 07 f6 be 14 15 c2 3e
       -0.39338842 0.3635394 -0.48052233 0.37906706
000380 49 bc 5d 3f b8 02 0b 3d fe d5 ad be 55 b2 9c be
       0.86615425 0.03393814 -0.33952326 -0.30604807
000390 a0 70 c8 be 54 ba ac be 44 a6 18 bd 03 3f c5 3e
       -0.39148426 -0.33735907 -0.03726794 0.38524637
0003a0 00 2c 98 3e 89 f2 f2 bd 2b b8 10 be 50 70 9b be
       0.2972107 -0.11862666 -0.14132755 -0.30359125
0003b0 e8 bb a5 be 8d ec e2 3e 83 f1 d6 be 17 00 fb 3e
       -0.32369924 0.443211 -0.41981134 0.49023506
0003c0 33 6a 40 be 01 67 a5 be be ba ba 3d 1c a8 cf 3e
       -0.18790512 -0.32305148 0.091176495 0.40557945
0003d0 b1 05 c8 3e 82 75 39 bf dc 3d f4 3e e3 2e b4 be
       0.39066842 -0.7244493 0.47703445 -0.35192022
0003e0 1e ef a2 3c 58 b4 ba be 13 b0 f3 be 99 5b 03 3f
       0.01988941 -0.36465716 -0.4759527 0.5131164
0003f0 72 33 47 3c 77 5c bf bd 4d 5f 37 3f 01 f1 9e bd
       0.012158262 -0.09343808 0.7162979 -0.077608116

rnn.bias_ih_l0 f4 [120]
000000 28 54 31 be 4e 81 46 3e f2 28 37 3d 91 2b 3e 3e
       -0.1731726 0.19385263 0.044716783 0.18571307
000010 b6 6e af be f2 6a 9d be 4e dd 6d 3e 49 11 9d bd
       -0.34264153 -0.30745655 0.23228952 -0.076693125
000020 ee df 25 3f a5 f2 01 be af 84 86 be d2 3e b6 3e
       0.64794815 -0.12690218 -0.26273105 0.35594803
000030 ef 7b a5 bd a0 c7 b9 3c c2 51 18 3d db a7 01 3e
       -0.08080279 0.022678196 0.037187345 0.12661688
000040 9b 4d 8e be 9a 8a 14 3c 72 b0 07 3f 9d 79 9a be
       -0.27793583 0.009066248 0.5300361 -0.3017091
000050 8f f7 f8 3e 2a 71 30 be d7 7e 05 be b3 a9 6c be
       0.48626372 -0.17230669 -0.13036667 -0.2311161
000060 2e cd ce be 93 6a 09 be 59 aa 16 3e 93 9d 09 bf
       -0.40390915 -0.13419561 0.1471342 -0.53756064
000070 6b d0 c3 be 76 83 21 be ab 6d 1e bf 6c f2 fc be
       -0.38244948 -0.15772805 -0.6188609 -0.49403703
000080 2b f9 30 bf 21 c5 8d be 67 64 3d bf a1 d6 ff be
       -0.691302 -0.2768946 -0.73981327 -0.49968436
000090 f4 c3 d7 be f9 6f 53 bf 36 9a 08 bf 5a c9 87 be
       -0.42141688 -0.8259273 -0.5336031 -0.26520807
0000a0 f5 a7 c0 bc 6d b3 13 bf 93 fc fd be bf 88 35 bf
       -0.023517588 -0.57695657 -0.4960676 -0.7091178
0000b0 63 01 0f bf 71 42 2a bf 49 11 24 3e fd 30 db be
       -0.5586149 -0.6650763 0.16022219 -0.42810813
0000c0 5a 61 46 bf 9c 7e 8d be 8e 72 b0 bc ff eb 01 bf
       -0.77492297 -0.27635658 -0.021538999 -0.50750726
0000d0 a6 8c 83 be 22 df a5 bd 57 29 23 bf fe f5 3a bf
       -0.25693244 -0.080992 -0.63734955 -0.73031604
0000e0 9e 7c 8b be b3 b3 03 bf 25 59 24 bf 94 27 3b bf
       -0.27243513 -0.51446074 -0.64198524 -0.73107266
0000f0 c5 61 2d bc bf bf 87 3e 9a 0a 10 3d 64 81 66 3e
       -0.010582392 0.26513478 0.03516636 0.22510296
000100 9e 8b ae bd bf 82 7a bd 72 1b fb bc c5 dd 3d be
       -0.085227236 -0.061159845 -0.030652735 -0.1854163
000110 21 3b 1f 3d 26 3b 0c be 19 d0 e3 3c 10 47 01 be
       0.03887475 -0.13694438 0.02780919 -0.12624764
000120 e4 40 4e 3e 07 1a 8a bd 55 0c c5 3d 98 93 c1 3d
       0.20141941 -0.067432456 0.09621493 0.094519794
000130 16 99 87 3e 35 9e 41 be 70 1a 2e 3e b4 b6 ad 3d
       0.26483983 -0.18908007 0.17002273 0.084821135
000140 9c 4f 61 be 1e 93 3f 3e 62 f5 28 be e2 b3 0a 3e
       -0.22003025 0.18708465 -0.16499856 0.13545182
000150 af 09 cc 3d 68 e6 39 3d d6 14 67 be 44 a9 4b bd
       0.099627845 0.04538575 -0.22566542 -0.04972197
000160 1e e7 2f 3e 80 80 a9 bd f9 6e 37 be ee ce 93 3e
       0.17178008 -0.082764626 -0.17913426 0.28868812
000170 11 d5 b3 3e b4 f2 61 3f ea e2 44 be 47 a0 3a be
       0.35123494 0.8826096 -0.19227186 -0.18225203
000180 e7 18 93 3e e9 ed 3a be 5d f1 3a 3f 75 ea 59 be
       0.28729936 -0.18254818 0.7302454 -0.21280845
000190 80 da 6a be 19 ad 37 3f 25 a9 88 be fd 62 3f 3d
       -0.22934914 0.717485 -0.26691547 0.046725262
0001a0 3b 2f 0e 3f f4 82 c1 3c df 3f b0 be 46 fa b2 3d
       0.5554082 0.023622014 -0.3442373 0.08739142
0001b0 c5 eb 17 3f bc d8 b7 be d5 1d 28 3f 58 0a 6a be
       0.5934413 -0.35907543 0.6567052 -0.22855508
0001c0 6e f1 a6 3e 8e ac f5 3c 59 44 21 bf 56 db 90 be
       0.3260607 0.029989507 -0.62994915 -0.2829234
0001d0 af 12 6d be 08 34 90 bd 15 d6 21 be ac 84 85 be
       -0.23151658 -0.07041174 -0.15804322 -0.26077783

rnn.bias_hh_l0 f4 [120]
000000 45 d1 a7 bd e3 46 b4 3e b5 ac a3 3e 95 8a c1 3e
       -0.08194212 0.35210332 0.31967703 0.37801042
000010 89 1a da be d1 d8 1f be ee 8e f7 3e 55 49 57 be
       -0.4259837 -0.15610053 0.48351234 -0.21024068
000020 e6 c7 0e 3f 2c 7c 5c bb d7 0f 95 be 7b f1 bd 3e
       0.5577377 -0.0033643348 -0.29113647 0.37098297
000030 33 2b 43 bc 6b c2 a2 3e cd b9 14 3e 36 a5 1f 3e
       -0.011912155 0.31788954 0.14524002 0.15590367
000040 ac d5 09 bf c1 c3 24 3e 9f 70 bb 3e 9c b6 a8 be
       -0.5384166 0.16090299 0.3660936 -0.3295182
000050 d3 37 0b 3f 83 d9 01 be d7 bf 1b be ab 77 03 be
       0.54382056 -0.1268063 -0.152099 -0.12838618
000060 65 0e a5 be 3d ae 4d be 7d 6f 27 3e 76 f5 69 be
       -0.32237545 -0.20085998 0.16351123 -0.22847542
000070 12 ed e7 be f0 ae f4 bd 0d b9 ab be 59 22 2d bf
       -0.45298058 -0.11947429 -0.3353962 -0.67630535
000080 b6 33 7c bf a1 40 24 be 64 0c 1a bf 24 8c 11 bf
       -0.98516405 -0.16040279 -0.60175157 -0.5685446
000090 13 d1 12 bf 52 7b 11 bf 0c a3 a0 be c6 c1 40 be
       -0.5735027 -0.56828797 -0.31374395 -0.18823919
0000a0 d6 ae 41 3e 6b 6f cd be 20 39 e2 be 23 f5 20 bf
       0.18914351 -0.40124068 -0.44184208 -0.6287405
0000b0 9d 73 4c bf 4d ef 10 bf 3d 96 cc 3e d0 fb 81 be
       -0.7986391 -0.56615144 0.39958373 -0.2538743
0000c0 bb 4a 49 bf 5c f5 8b be 82 00 1a be 07 08 0d bf
       -0.78629655 -0.27335632 -0.15039256 -0.55090374
0000d0 a5 24 82 be 5e 93 b5 bd 67 08 08 bf 66 4f 09 bf
       -0.25418583 -0.08865999 -0.5313782 -0.5363678
0000e0 2c cc 81 bd 61 b2 3b bf 79 ee 3a bf b7 de 69 bf
       -0.06337771 -0.7331906 -0.7302013 -0.9135546
0000f0 8a 34 9f 3d 97 9e 41 bd b8 ce 98 bd c7 1a 72 3e
       0.07773693 -0.047270384 -0.074613035 0.23643027
000100 d7 41 bf 3d 76 e3 7e bd 52 67 16 bd 1e ac d4 bd
       0.0933873 -0.062228642 -0.036719628 -0.10384391
000110 df ea cd bd b0 ba 50 be f1 dc 66 3e 79 51 0a 3e
       -0.10054564 -0.20383716 0.2254522 0.13507642
000120 0f 0c 95 3e 5f af c4 bd 4b 4b 87 bd e8 89 23 3d
       0.29110762 -0.09603762 -0.06606158 0.03992644
000130 49 3d 26 3e 00 f5 4d bd c6 13 08 3c ae 2b 33 bd
       0.16234316 -0.05028248 0.008305496 -0.043742828
000140 a1 a6 1f be 9d 53 52 3e 6a c2 17 3d 70 95 ae bd
       -0.15590908 0.20539708 0.037050642 -0.08524597
000150 07 33 21 be 90 ef 2c 3d 59 f6 da be 39 cd 05 3e
       -0.15742122 0.042220652 -0.42766073 0.13066567
000160 d2 bc 61 3e b1 ef 94 3d 85 02 a0 bd 8e c5 68 3e
       0.22044685 0.0727228 -0.078129806 0.22731611
000170 36 ed b3 3e dc dd 4e 3f d9 79 3d be d2 cf 25 be
       0.35141915 0.8080728 -0.18503512 -0.16192558
000180 85 71 84 3e 97 bc 49 be d0 0b 3b 3f 9d 0f c0 be
       0.2586786 -0.19700848 0.730649 -0.37511912
000190 d8 b8 a8 b8 2c d8 ee 3e 07 5c c2 be ae e1 16 be
       -8.045294e-05 0.466493 -0.37960836 -0.14734527
0001a0 18 c0 80 3e 41 fc 01 3e 1a 19 64 be 29 d7 93 3d
       0.25146556 0.12693883 -0.222752 0.07218773
0001b0 b7 eb 1d 3f 1b 74 d1 be 4e c2 48 3f 90 aa dd be
       0.616878 -0.40908894 0.78421485 -0.4329419
0001c0 0d 99 b3 3e 6d b6 94 3d 8c 2c 27 bf d2 17 b9 be
       0.35077706 0.072613575 -0.6530235 -0.36150986
0001d0 ca 24 87 be dc de 70 be 80 b9 ec be 1a 3d f1 be
       -0.26395255 -0.23522514 -0.46235275 -0.4711693

rnn.weight_ih_l1 f4 [120, 30]
000000 dd f7 5e be eb 48 80 3c 27 42 9c 3e 03 ca 80 3c
       -0.2177424 0.01565977 0.3051922 0.015721327
000010 ce 06 22 bf bd f3 4a bf 0b 2b 22 3d c5 13 01 be
       -0.63291633 -0.79278165 0.03959183 -0.12605198
000020 25 2f cf be 53 24 cd be c5 76 19 bf f4 6c 40 3e
       -0.40465656 -0.40066776 -0.5994685 0.18791562
000030 2c 41 6d bf 5b 2c 94 3d ff c4 be 3e f9 90 ed 3d
       -0.9267757 0.07235023 0.3725967 0.11599917
000040 ab 85 f9 bd b0 2c 21 bf 76 29 60 3e a2 b3 37 be
       -0.12183698 -0.6295881 0.21890816 -0.17939618
000050 f2 01 65 3e 8b 92 66 3f 3c ee 11 3e 9e b6 73 3e
       0.22364023 0.90067357 0.14251035 0.23800132
000060 2a a6 0a bc e6 10 96 3e 52 72 13 be 10 ad 07 be
       -0.008462468 0.29309767 -0.14399078 -0.13249612
000070 25 7e db be 17 36 41 be d0 7c ac be da c1 24 bf
       -0.42869678 -0.1886829 -0.33688974 -0.64358294
000080 02 7a c9 3e 8a f0 0e 3f 3a 35 22 3f 97 10 7f bf
       0.39350897 0.55835783 0.6336247 -0.9963469
000090 57 19 a8 3e 15 d7 66 bf 3f a5 93 3d 60 d9 01 3e
       0.32831833 -0.9017194 0.072092526 0.12680578
0000a0 89 a9 93 be c9 6d f3 3d 04 75 f1 3c 1d bf de be
       -0.28840283 0.11886174 0.029474743 -0.43505183
0000b0 82 36 01 3f 41 fb 3a 3f 51 1f 6b 3e 44 f1 ae be
       0.504738 0.73039633 0.22961165 -0.34168446
0000c0 c3 88 ff bd fd f6 37 bf e3 f8 03 be 3c 56 3b 3f
       -0.12477257 -0.7186125 -0.12887911 0.7317846
0000d0 ab b2 23 3e 30 26 ca 3d 16 7d 3f be 0a bd 8a 3d
       0.15986125 0.09870565 -0.1870006 0.067743376
0000e0 64 7d 19 bf 50 bc 8d bb 09 f3 02 bf df 56 24 3e
       -0.59956956 -0.004325427 -0.5115209 0.16048764
0000f0 42 7f ab 3d f7 db b5 3e 61 36 c6 bd 16 85 56 be
       0.08373882 0.35519382 -0.09678341 -0.20949206
000100 bf e6 b5 3e 3d ed 35 3e 47 20 8e bd 84 75 d6 3d
       0.35527608 0.1776628 -0.0693975 0.10471633
000110 49 8f a2 be e0 62 2a 3c d6 fc c3 be 61 e3 ad 3e
       -0.31749943 0.01039955 -0.38278836 0.3396254
000120 56 8e 24 be e0 df 64 3d 63 84 5e 3d 97 df d0 3c
       -0.16069922 0.055877566 0.054325473 0.025497241
000130 6e ce f1 3d 7c 97 c6 3d f7 0e b8 3e 48 d7 31 3e
       0.118069515 0.09696862 0.35948917 0.1736728
000140 46 0a a0 bc cf 10 0f be 9b 22 0b 3e 96 c8 98 3e
       -0.019536149 -0.13971256 0.1358742 0.29840535
000150 b9 ec bc be 5b 9a 0b 3e ca 6e cf 3d 1f f2 02 3f
       -0.36899355 0.136331 0.10128553 0.511507
000160 2b e3 e1 3e 7b 1a 85 3e ef d2 10 be 94 e4 4c be
       0.44118628 0.25996765 -0.14142965 -0.2000907
000170 68 df f7 3d 82 99 0b bf 50 71 37 3e a7 57 82 be
       0.12103158 -0.5453111 0.17914319 -0.25457498
000180 35 90 4e be 88 67 08 bf ff 37 57 3d ad 7d 34 be
       -0.20172198 -0.53282976 0.052543636 -0.17626067
000190 ac a1 a1 bc 3c fb c8 3e 88 55 f8 3d 99 81 8a 3e
       -0.019730411 0.39254177 0.12125689 0.27052
0001a0 5a dc b6 bd 4f da 47 be f8 bb 2a 3e 71 42 2e 3e
       -0.089287475 -0.19516872 0.16673267 0.17017533
0001b0 84 5d 27 be cb e7 86 3e a2 d1 16 bf ea 60 5c 3e
       -0.16344267 0.2634872 -0.58913624 0.21521345
0001c0 33 c7 1c be ea 58 2f be 28 e4 9f bd 12 a8 9f be
       -0.15310363 -0.17123762 -0.07807189 -0.31182915
0001d0 e0 2b a7 3e f7 28 a6 3c 94 a1 7e 3e a9 78 c8 3e
       0.3265066 0.020283205 0.24866325 0.39154556
0001e0 25 d4 d8 bd ca ee 6f bd a7 f2 9f bd ff d9 99 3e
       -0.10587338 -0.058577336 -0.07809954 0.3004913
0001f0 78 f1 40 3e ce 7a f7 3b 0a fd 13 be e7 e2 2d bc
       0.18842113 0.0075524813 -0.14451995 -0.01061318
000200 f3 9f e9 3d 87 b7 06 be 2f 3f 9b 3e 99 7d 5e be
       0.11407461 -0.13155948 0.30321643 -0.21727599
000210 41 99 23 3e fa 40 89 be de a0 bb bc 24 9c 08 bd
       0.1597643 -0.26807386 -0.022903856 -0.033352032
000220 1d 84 12 bd cb 00 ab be 54 c2 17 3e 55 c8 c8 bd
       -0.035770524 -0.33399042 0.14820224 -0.09803835
000230 d7 52 60 be 6a 21 59 3d 67 02 a4 3e 5a 3d 61 bf
       -0.21906601 0.05301038 0.32033083 -0.8798424
000240 da 5e 63 be a3 6a 2a bf 22 83 91 be 5d 38 db 3e
       -0.22204152 -0.66568965 -0.2842036 0.4281644
000250 66 f8 b3 be dc 2d 11 3e e7 ce 60 bf bb 9f 05 bf
       -0.3515045 0.1417765 -0.8781571 -0.52196854
000260 d5 4e fb 3e 42 cd f9 3d 7b ed c9 bd 96 fc b6 be
       0.49083582 0.12197353 -0.09859749 -0.35739583
000270 7e ac 92 bd ce 06 e4 be 69 eb 2e be 81 cb 0f bf
       -0.071618065 -0.44536442 -0.1708199 -0.561699
000280 e2 16 84 be 35 f0 d5 be 44 c8 5b bf e2 5b 49 be
       -0.25798708 -0.41784826 -0.85852456 -0.19663957
000290 64 8d 34 3f 6a 00 89 3e 25 f0 06 3c 2f d2 1a bf
       0.70528245 0.26758128 0.008235966 -0.60476965
0002a0 3a 78 a0 bd d8 49 38 bf 61 fc 74 3e 03 2a 3a 3f
       -0.078354314 -0.71987677 0.239244 0.72720355
0002b0 98 9a 41 3e 43 04 72 3e 34 a5 5b be 59 59 19 be
       0.18906629 0.23634438 -0.21449739 -0.1497549
0002c0 5e 41 fb be 42 9d 59 3e eb ae 31 bf 76 f4 07 3e
       -0.4907331 0.21251395 -0.6940753 0.13276848
0002d0 8a c2 9d be c3 35 06 3f 7c 08 a1 bc ba 83 ca be
       -0.30812484 0.52425784 -0.019657366 -0.39553624
0002e0 37 2d 72 bd 20 60 13 bf 65 a4 ed 3d e4 65 05 bf
       -0.05912515 -0.5756855 0.116036214 -0.521086
0002f0 39 c4 88 be 52 72 88 be c3 d3 3b bf c6 c5 2d 3b
       -0.26712206 -0.2664972 -0.7337 0.0026515587
000300 eb 00 0d be a1 f9 da bd bf 53 0e bd 4b ef 55 3d
       -0.13769881 -0.10692144 -0.034747835 0.05223016
000310 f3 e7 df bc 56 1c 0d bd 7c 05 5c be ad 94 59 be
       -0.027332282 -0.03445085 -0.21486467 -0.21248122
000320 95 fa 1a 3f 53 55 ef bd c9 0a ee 3d 52 6a 11 3e
       0.6053861 -0.11686196 0.11623151 0.14200714
000330 5b ba 06 bd 97 09 9b be 90 29 25 be 4c 05 27 3e
       -0.032892566 -0.30280754 -0.16129136 0.16310614
000340 8a 08 a2 3d 10 0b a6 3e 07 e3 8d 3e 24 44 0f 3f
       0.07911785 0.32430315 0.2771227 0.5596335
000350 53 b2 bd 3e ad 5d e6 3e 12 87 f2 bd 36 87 7b be
       0.37050113 0.44993344 -0.11842169 -0.24563298
000360 4c b9 0b be b5 be a4 3e 65 33 ee be 74 4a 4a 3f
       -0.13644904 0.32176748 -0.46523586 0.79019856
000370 52 8e a3 be 51 69 ea be 0f 39 20 bd c9 7f 17 3e
       -0.3194452 -0.45783475 -0.039116915 0.1479484
000380 f5 b0 fd 3e 38 f4 4e 3e 44 29 1b 3e e6 f8 e7 3f
       0.4954907 0.2021035 0.1515246 1.8122833
000390 13 2c c4 3e 29 42 04 3f 64 18 5d be 28 ec 21 be
       0.38314876 0.5166345 -0.21591336 -0.15812743
0003a0 f6 59 c4 be 44 e0 e8 3d 98 25 4b be 53 36 1e 3e
       -0.38349885 0.113709 -0.1983856 0.1545041
0003b0 6b 3f c3 3d 6a 7d 14 3e e7 af 0c 3f ce 1d d8 3d
       0.095335804 0.14500967 0.54955906 0.1055256
0003c0 29 da 92 be f9 0f 95 3f 3f 65 7e 3e 0f 6d 59 bf
       -0.28682068 1.16455 0.2484331 -0.84932035
0003d0 a1 7b 94 bf 04 b7 c3 3d bc ee 0c 3e e6 f8 b7 3f
       -1.1600229 0.09556392 0.13762945 1.4372833
0003e0 5f 90 11 bf 45 7e f3 3e bd 89 37 bf 33 ee 54 be
       -0.5686092 0.47557274 -0.71694547 -0.20793991
0003f0 c8 89 46 bf 09 ff 9f 3c a4 38 40 3d f6 ad 09 bf
       -0.7755399 0.01953079 0.046929017 -0.5378107

rnn.weight_hh_l1 f4 [120, 30]
000000 1e 05 4a bd 5c 20 ba 3e 32 b8 98 be eb 82 14 3e
       -0.049321286 0.36352813 -0.2982803 0.14503066
000010 eb 78 07 bf 7e 14 95 bd 18 94 c6 3e 03 bc c4 3e
       -0.5291888 -0.07279299 0.38784862 0.38424692
000020 9e 3e a6 bd 17 42 a8 be ad fb 80 3e 9d 29 55 bf
       -0.08117412 -0.32862923 0.25192013 -0.8326662
000030 69 32 f6 3e ea 83 d0 bd 46 2f b1 3b 10 3b c2 bd
       0.48085335 -0.101814106 0.0054072468 -0.094839215
000040 eb aa 3d 3e 84 d7 d1 3d 88 33 47 3e 58 88 81 3e
       0.18522231 0.102461845 0.19453251 0.25299335
000050 61 00 35 3f 86 d3 07 3e bf 4d 58 bd 4f 23 a8 be
       0.70703703 0.13264284 -0.05280852 -0.32839438
000060 68 d1 b6 bd 48 5b bc be 2c 60 df bd 22 2e 15 be
       -0.0892666 -0.36788392 -0.10907015 -0.1456838
000070 63 c3 05 3f a8 15 85 3e b9 2d 92 be 57 c2 08 3e
       0.5225126 0.25993085 -0.2855051 0.13355385
000080 60 b4 c3 be de 46 9a 3e 57 7b 7f bf 37 85 87 bd
       -0.38223553 0.30132192 -0.99797577 -0.066172056
000090 dc d8 8d 3e a0 be 19 3e 6a 0b cc 3c d6 8f 27 bf
       0.27704513 0.15014124 0.024907786 -0.6545385
0000a0 fe e6 bc 3c ea 68 dc be 3c 84 d3 3e e6 f0 4c be
       0.023059364 -0.43048793 0.41311824 -0.2001377
0000b0 90 af 46 3e 38 a6 75 be dc e2 af be 28 78 9d 3d
       0.1940291 -0.23989189 -0.34352767 0.076889336
0000c0 f6 f8 77 bf 9b 83 c8 bd d3 a3 bd 3e d6 a4 fb 3d
       -0.9686426 -0.09790727 0.3703905 0.12287299
0000d0 50 09 3e 3e d6 56 80 be c6 6d 64 bf a6 b9 aa bf
       0.1855824 -0.2506625 -0.8923 -1.3337905
0000e0 a1 76 6f bc bb d3 4a bc e9 5c 1b 3e d1 e2 b5 3e
       -0.014615686 -0.012379582 0.15172161 0.3552461
0000f0 79 b1 01 3f 06 48 ac 3e b3 82 60 bf 08 9a b4 3e
       0.50661427 0.336487 -0.8769943 0.35273767
000100 22 f6 02 be f1 0f a5 be 40 78 90 3e 27 db 70 bd
       -0.12789205 -0.32238725 0.28216743 -0.05880275
000110 c5 9f ab be 9a bb 53 3e 42 44 91 be e7 be e5 3e
       -0.33520332 0.20677033 -0.2837239 0.4487221
000120 3b 79 f3 3e fb 69 84 be 0d 14 31 3e 80 44 20 bc
       0.4755343 -0.25862107 0.17292805 -0.009781957
000130 1a 28 31 3c ea 02 fa 3d 9e e3 91 be c3 95 de 3e
       0.010812784 0.12207587 -0.2849397 0.43473634
000140 05 0c 88 bf e8 03 e7 3e 8c 87 da 3e 28 9f 93 be
       -1.0628668 0.45120168 0.4268154 -0.28832364
000150 bb 36 8e bd b4 8a 8b be f3 35 18 3f 30 a4 ad be
       -0.06944033 -0.2725426 0.5945732 -0.33914328
000160 21 34 08 3f f9 4c 64 3e 7b e9 3d 3f 00 a4 33 3f
       0.5320454 0.22294988 0.7418439 0.7017212
000170 e1 f6 97 3e 2b 51 94 3f e3 cc 6e 3c 23 cd 04 bf
       0.2968054 1.158727 0.014575216 -0.51875514
000180 1e fc bb 3e e0 ab 0f 3f ec b9 9b 3e ef 07 41 3f
       0.36715788 0.56121635 0.30415285 0.7540273
000190 74 b1 02 ba b0 de ee 3b 3f be eb 3e 1a 26 b2 be
       -0.0004985549 0.00728973 0.46043584 -0.34794694
0001a0 43 e5 1f 3f 1b 56 7b bd bc 28 04 bf c3 6c ff bc
       0.624592 -0.061361413 -0.51624656 -0.031179791
0001b0 63 ae 15 bf 38 5d 05 3e ec f7 8e be 14 a4 a1 3e
       -0.5846922 0.13023841 -0.27923524 0.31570494
0001c0 1f a5 ea be c8 65 cf 3e 2e 11 07 3d b9 45 ac 3e
       -0.45829102 0.4050734 0.03297537 0.33646944
0001d0 0d 32 0b 3f e9 4b 0b bf d3 db 9b 3e 25 d0 81 3e
       0.54373246 -0.54412705 0.3044115 0.25354114
0001e0 36 c8 18 3e 36 25 55 3d 3b 3c 98 be 75 80 79 3d
       0.14920124 0.05203744 -0.29733452 0.06091352
0001f0 5f b4 04 bf 37 62 42 3d b0 3c dd 3d 82 ce 44 be
       -0.51837724 0.047456946 0.10802591 -0.19219401
000200 d7 10 89 3e a7 c5 a3 3d 3e 2e 9c bd 0c af 29 3e
       0.2677066 0.079966836 -0.076260075 0.16570681
000210 b4 6a 85 3f f8 24 d2 3c 20 bc 46 3e b2 ec 49 3d
       1.0423188 0.025652394 0.19407701 0.049297996
000220 3d 34 ed 3d 1a 58 60 bd cc 8b 01 bf f0 cc 51 3d
       0.11582229 -0.05477152 -0.5060394 0.051220834
000230 d4 ed 53 be f9 3f d8 3d 58 0d e3 3e 3a eb c3 be
       -0.20696193 0.10559077 0.44346118 -0.382654
000240 6b 6d 12 bf e7 3d cf be e8 54 3d 3e 91 36 01 bd
       -0.5719821 -0.40476915 0.1848942 -0.03154618
000250 e4 cc 1b 3e ed e2 5c be 4a 27 37 be 7b 44 2f be
       0.15214878 -0.2157094 -0.17886081 -0.17115967
000260 97 0f a1 bd 5a ea 45 3e fb 04 f3 be 4f 47 83 3e
       -0.07864302 0.1932768 -0.47464737 0.25640342
000270 c9 14 ef 3d 46 3c a7 3e 8d 77 02 be 19 0b ba 3d
       0.11673886 0.32663172 -0.12740918 0.09084148
000280 cb b9 c9 bd 48 3c 04 bf 41 5f d6 3e 49 52 da bd
       -0.0984989 -0.5165448 0.41869548 -0.10660226
000290 07 64 05 3d 83 fa b0 bd 8b 99 ce bb 29 54 1b 3e
       0.032566097 -0.08641531 -0.006304925 0.15168823
0002a0 c2 d4 b6 bd b1 f5 e3 3d 8f 79 19 3f 9a ea fd 3b
       -0.08927299 0.11130846 0.5995111 0.007748914
0002b0 1d 43 18 3b 42 b6 13 bd 00 f5 da bd 9e 7c ed be
       0.0023233362 -0.036062486 -0.10691261 -0.46384138
0002c0 e0 70 dd 3c ed 69 a7 3d e5 60 93 3e 47 35 42 3c
       0.027031362 0.081745006 0.28784862 0.011853523
0002d0 3f 2f 4a be 67 5c e9 be 13 7f 99 be 6a 81 c8 ba
       -0.19744585 -0.4557831 -0.29979762 -0.0015297357
0002e0 a0 54 85 bd c2 54 75 3d 92 ce 48 3e ae ee f2 bd
       -0.065102816 0.059895284 0.1961005 -0.11861931
0002f0 57 54 02 be 19 cc 0c bf 9f 9c 50 be eb 41 54 3e
       -0.12727486 -0.5499893 -0.20372246 0.2072827
000300 a1 f6 cf 3e 66 56 91 3d 42 54 cf bc 44 c1 c7 bd
       0.4061785 0.07096557 -0.025308732 -0.09753659
000310 a2 03 da 3c 5a 5e 81 3e d6 a3 f6 be 52 26 70 bc
       0.02661306 0.25267297 -0.48171872 -0.014657574
000320 a4 af ff 3d c3 1c 08 be 24 31 f5 bc be 34 3f be
       0.12484673 -0.13292222 -0.029930659 -0.18672463
000330 e2 ce d6 3d 10 e5 19 bf 32 af 69 be 8e 37 bc bd
       0.104886785 -0.60115147 -0.22820738 -0.09190284
000340 5f a8 3e 3e 6e a6 b0 3e 9d a6 26 3e 36 10 82 3e
       0.18618916 0.34501976 0.16274495 0.25402993
000350 ea 2c 62 3d 56 37 eb be ca 19 ca 3e 28 0b 22 be
       0.055218615 -0.45940655 0.394728 -0.15824568
000360 06 b6 8d 3e 25 5c f8 bd 74 b8 e9 be 8c 5b 2d be
       0.27677935 -0.1212695 -0.4564854 -0.16929454
000370 51 55 44 bd 63 ce 0a 3d f6 59 6f 3e 2c 53 3a 3e
       -0.047932927 0.033888232 0.23374161 0.1819579
000380 60 df b7 be ce f7 91 bc cd d3 9f 3e c0 08 60 bd
       -0.3591261 -0.017818358 0.3121628 -0.054695845
000390 ed 87 da be 9a 6f b4 3e fd d0 6a be 28 96 86 3e
       -0.42681828 0.35241395 -0.22931285 0.26286435
0003a0 12 d3 2e 3e d3 c0 e4 3d 43 c1 9a be cc 95 79 3e
       0.17072704 0.11169591 -0.30225572 0.24373549
0003b0 e0 cf 9a 3d 06 88 a6 bd 2e ec 32 3d 29 07 00 3f
       0.0755918 -0.08131413 0.04368227 0.50010926
0003c0 d8 48 91 bc 23 48 98 3e a9 db b8 be f6 10 17 3f
       -0.01773493 0.29742536 -0.36105087 0.59010255
0003d0 48 21 09 3f d2 09 a6 be 44 58 a3 3d 4c 3a 2c bf
       0.5356641 -0.32429367 0.0797582 -0.67276454
0003e0 ad 7e 1d bf 5c 01 44 3e 96 a3 6b bd 8f 3d 7e bd
       -0.61521417 0.19141144 -0.057529055 -0.062070426
0003f0 90 fd c8 3e 6d c3 9e be 87 6f ce bd 51 4d 26 bf
       0.39255953 -0.31008473 -0.10079866 -0.64961725

rnn.bias_ih_l1 f4 [120]
000000 59 44 51 3e 27 a9 3c bd fd de f8 be a9 6d 96 be
       0.20436229 -0.046059754 -0.48607627 -0.2938054
000010 bf 33 e7 be af 9a 99 bd ad cf 0d be 28 ad 95 bd
       -0.45156667 -0.07500207 -0.13848753 -0.073084176
000020 00 52 3d be 4f d4 fe be ca 53 5d be 3f b9 30 bf
       -0.18488312 -0.49771354 -0.21613994 -0.69032663
000030 2b 32 69 be b1 95 88 3d a2 cb a8 be 62 73 6b 3d
       -0.22773044 0.06669176 -0.3296786 0.057483084
000040 c2 d2 b3 be 98 ab 47 bc b3 f5 7b be 3b 48 f4 be
       -0.35121733 -0.012186907 -0.24605446 -0.47711357
000050 25 99 39 bf 0c 15 a6 3e 93 c4 dd be ea f3 f9 be
       -0.72499305 0.32437932 -0.43314037 -0.48818904
000060 3d b6 92 3e 4e 71 6c be 94 be bc 3e 5a ea 90 3d
       0.28654662 -0.23090097 0.3686415 0.07075949
000070 c0 ba d8 be 01 17 f1 be a1 d6 39 3e c2 50 7e 3e
       -0.4232998 -0.47087863 0.1814828 0.24835494
000080 be e5 12 3f e4 5c b9 3e e2 82 72 3d 9d c8 03 3d
       0.5738181 0.36203682 0.05920685 0.03217374
000090 57 e0 c7 bd a6 ca c9 bd 43 30 5d be cb ec c2 3e
       -0.09759586 -0.09853105 -0.21600442 0.38071284
0000a0 49 75 9e 3c c5 0a 39 3f a0 26 1d 3d a3 ab e7 3e
       0.019343035 0.7228206 0.038366914 0.45248136
0000b0 e4 af c9 bb d4 51 b4 3e b0 a2 00 3f 50 e8 ad 3e
       -0.006155001 0.3521868 0.5024824 0.33966303
0000c0 6a 58 5a bd a3 14 0d 3f b3 4d 86 3f 9f fc 86 3e
       -0.053306974 0.55109614 1.0492462 0.2636461
0000d0 a2 6d 33 3f be 30 0e 3f 03 65 d7 3e e7 86 36 3f
       0.7008916 0.55543125 0.42069253 0.71299595
0000e0 83 dd 53 3e d2 77 69 3d 91 f5 9e 3e a6 a9 a0 3e
       0.20689969 0.056999035 0.31046727 0.3137943
0000f0 d0 27 92 be a1 52 c5 be 7c c6 ac 3d 75 1f 8a bd
       -0.28546 -0.38539603 0.084362954 -0.06744281
000100 9c 7c 66 3e 61 7d b3 3e 61 b8 13 be a0 bd 08 be
       0.22508472 0.35056594 -0.14425804 -0.13353586
000110 6f 4d 08 be 7e 8a 35 be 9c cd 17 be 50 90 2a b9
       -0.13310789 -0.17728612 -0.14824528 -0.00016266224
000120 b6 b3 cf be f1 0d 90 3e f6 86 e7 3c 30 d0 29 3e
       -0.40566796 0.28135636 0.028262597 0.16583323
000130 cf 48 39 3d a3 ab 13 bf f5 11 3b 3e b5 4b 80 bd
       0.04523545 -0.5768377 0.18268569 -0.0626444
000140 2b 9f a0 be 9d 73 a9 be e6 1f 00 3e 99 ee 00 3d
       -0.31371436 -0.33096018 0.12512168 0.031477544
000150 c6 ec 2f be 04 9d f7 3d 84 2a 14 bf 22 56 94 3e
       -0.17180166 0.12090495 -0.57877374 0.28971964
000160 49 ce 0b 3d e8 d9 48 be e5 5a c7 3e 7f 60 6d 3e
       0.034132276 -0.19614375 0.38936535 0.23181342
000170 f7 ce 20 3e 78 76 a8 3e 96 e4 1c be 9a 00 94 bd
       0.15703951 0.32902884 -0.15321574 -0.07226677
000180 92 3a cd 3c 7a d9 a0 be cd 71 f0 bd 71 d5 a7 3e
       0.025052343 -0.3141592 -0.11740456 0.3278003
000190 12 51 a2 be 7d 87 08 3f a3 8e f6 3d bd ed 2a 3e
       -0.31702477 0.5333174 0.120389245 0.16692252
0001a0 ba be 6b be 91 3e 14 bc 23 c0 09 3d 3c da b8 3e
       -0.23021975 -0.00904812 0.0336305 0.36104
0001b0 36 c1 29 be e6 b9 29 3f f9 32 0f 3f ca 2e 41 3e
       -0.1657761 0.66299284 0.55937153 0.18865505
0001c0 35 f3 8a 3e 78 d1 aa 3e ba 7b 1b 3f 4c 2f 33 3e
       0.27138677 0.33362937 0.60735667 0.17498511
0001d0 ed 88 32 3e 0d ca 9f bd d1 a7 17 be 07 d8 14 3d
       0.17435046 -0.0780221 -0.1481011 0.036338832

rnn.bias_hh_l1 f4 [120]
000000 00 f3 5a 3d 44 86 87 3d e5 95 36 bf 5a 23 be be
       0.0534544 0.06617406 -0.7132247 -0.37136346
000010 5f 35 cb be 31 32 29 3e e9 3d 06 be 2a 11 7c be
       -0.39689156 0.16523053 -0.13109554 -0.24615923
000020 f8 25 27 be 17 a6 ef be b9 d3 f5 bd fc 01 2e bf
       -0.16323078 -0.46806404 -0.120032735 -0.6797178
000030 83 f1 58 bd 02 38 b7 bb e7 1e 80 be e3 e6 63 bd
       -0.0529647 -0.0055913934 -0.25023577 -0.055640113
000040 cd 63 18 bf 54 51 4b 3e 6c 21 fe 3c 86 9a fb be
       -0.59527284 0.19855243 0.031021796 -0.4914133
000050 16 d9 51 bf 0c 37 86 3e 7d 6f ef be 03 71 eb be
       -0.8197187 0.26213872 -0.46764746 -0.4598466
000060 6e b0 89 3e 99 09 82 bd 08 d0 9a 3d 92 52 c3 bb
       0.26892418 -0.06349487 0.0755921 -0.005960771
000070 e4 9e dc be 55 ed 10 bf 56 ba 5a 3e da 9a f8 3e
       -0.43089974 -0.5661214 0.21360144 0.48555642
000080 bd dc 0c 3f cd 35 c3 3e 76 48 4f 3e 43 b8 1a bb
       0.5502432 0.38126984 0.20242485 -0.0023608364
000090 ae 50 1c 3e 70 ee 07 3e 18 cf 0a be 2a 9d aa 3e
       0.15265152 0.1327455 -0.13555562 0.33323032
0000a0 49 60 e1 3c 98 61 13 3f ec cd 33 3e c5 99 9b 3e
       0.027511733 0.5757079 0.17559022 0.30390754
0000b0 04 a6 27 bb 56 04 33 3e a8 ce c2 3e de 94 ab 3e
       -0.002558113 0.17482123 0.3804829 0.33512014
0000c0 24 f6 03 be 65 03 26 3f 1e 89 60 3f 23 f2 67 3d
       -0.12886864 0.6484893 0.87709224 0.056627404
0000d0 b8 08 c1 3e a6 c8 c9 3e ae e1 c6 3e 74 03 0d 3f
       0.37701964 0.39410895 0.38844055 0.55083394
0000e0 19 54 89 3e 52 6e a9 bc d4 4b fe 3e 71 b0 ae 3e
       0.26821974 -0.020682488 0.49667227 0.3411899
0000f0 06 b4 9d be 6d 4b b2 be 1c 55 82 bd c8 44 af bd
       -0.3080141 -0.3482317 -0.063638896 -0.08558041
000100 68 a1 82 bd c8 39 15 3e db 0b 27 be c6 b2 63 be
       -0.06378442 0.14572823 -0.16313116 -0.22236165
000110 42 0e d1 bd 27 ed 2b 3b 28 d7 a0 bd 9e dd 77 3e
       -0.102077976 0.0026233883 -0.07853538 0.24205634
000120 2b 35 fd be 21 5e c3 3e 34 5c d4 3d 6e f4 ba 3e
       -0.49454626 0.38157752 0.10369149 0.3651461
000130 d6 5a 52 3d 91 dd ce be f9 56 d7 bd 8e 54 5d be
       0.05135616 -0.40403417 -0.105146356 -0.21614286
000140 26 8f cb bd da 9d a8 be 7b 00 1e 3e 90 bf 17 3e
       -0.09939413 -0.3293293 0.15429871 0.14819169
000150 69 5a 15 3d 57 38 04 be 99 97 18 bf de 0f 90 3e
       0.036463175 -0.12912117 -0.5960632 0.28137106
000160 33 04 ed bd 2c 35 63 bd 3d f3 48 3e 36 d8 6d 3e
       -0.115730666 -0.05547063 0.19624038 0.23227009
000170 4f a8 94 3e ab 87 46 3e 2c 9b b8 3c 17 7f 1e 3e
       0.2903466 0.1938769 0.02253493 0.15478168
000180 21 fc 51 3b f0 57 6e be 2e 5f 70 3d c6 6c 01 3e
       0.003204115 -0.23275733 0.05868452 0.1263915
000190 c3 96 5d be a2 2f db 3e cd 5d 2a 3d a3 64 2e 3e
       -0.21639542 0.42809778 0.04159336 0.17030577
0001a0 a5 4f ab bd b5 27 45 3e 3f 1a ee bd 32 24 c3 3e
       -0.083648 0.19253428 -0.116261 0.38113552
0001b0 9b ee b9 be 46 93 2b 3f 12 6f 0a 3f fe fd 6a 3e
       -0.36314854 0.67021596 0.5407573 0.22948453
0001c0 89 14 d8 3e 54 4c b7 3e 56 ef 0f 3f b6 c8 de 3d
       0.42203167 0.3580042 0.5622457 0.10878126
0001d0 5a b5 63 3e dd 00 8c 3d 7e 84 0c be c2 00 3e 3e
       0.22237149 0.06836102 -0.13722417 0.18554977
